cnn.pth (torch, 493015 bytes, 10 tensors)

conv1.weight f4 [32, 3, 3, 3]
000000 3b f5 6b be 3c af 6e 3d 8d e8 08 be dd 7f 4e bd
       -0.23042767 0.058272585 -0.13369961 -0.05041491
000010 e6 d4 b5 3c 27 95 ea bd 77 14 77 bd 5f f6 26 be
       0.022196244 -0.1145423 -0.06032225 -0.1630492
000020 89 c5 75 be 47 64 3c be 1a bd 56 3c 3e f3 42 be
       -0.24001135 -0.18397628 0.013106609 -0.19038102
000030 88 eb b0 bd 21 d8 18 bd 4b f6 80 bd bb 81 45 be
       -0.08638674 -0.03731549 -0.06296977 -0.1928777
000040 fd 9b d3 3d 9f 64 1e 3e 31 ca 84 3a 98 24 4d 3e
       0.10332487 0.15468071 0.0010131059 0.2003349
000050 2e a7 19 3d f4 b9 dd bd 55 03 76 3e b3 03 08 3e
       0.03751295 -0.10826483 0.24024709 0.13282661
000060 28 fb 96 bd 47 9f fc 3d fb 3a 3a 3e 06 1e 7b be
       -0.07372123 0.12335067 0.18186562 -0.24523172
000070 1d ad b7 3d cf 38 77 3c d1 b6 20 be 26 08 cf bd
       0.089685656 0.015089228 -0.15694739 -0.10108976
000080 ea 7c 69 be 56 cc 8f bd 9a 6b ea bd 5c 7c 02 bd
       -0.22801557 -0.07021396 -0.114463046 -0.03185688
000090 7a 81 42 3e f4 cf 57 3e e3 f5 54 3e 1b f8 90 bc
       0.18994704 0.21075422 0.20796923 -0.01769643
0000a0 37 e0 2a 3e c3 ea 5b 3e 51 e9 fc bc 20 a6 01 3e
       0.16687094 0.21476273 -0.030872973 0.12661028
0000b0 ca 59 47 3e d2 44 0f bd 01 cf b0 bd 61 4a 25 be
       0.19467846 -0.03497774 -0.08633233 -0.16141655
0000c0 10 41 aa bc 15 f5 c2 3d e8 04 5b be b3 b6 03 3d
       -0.020782977 0.09519402 -0.2138859 0.032156657
0000d0 e6 2a 75 bd 3a 61 c7 3d fd c5 47 3e f4 72 11 bd
       -0.059855364 0.09735341 0.1950912 -0.03551002
0000e0 01 ed e5 bc b9 d2 a0 3d cf 6f 29 bd 7a 8c 37 be
       -0.028067114 0.07852692 -0.041366395 -0.17924681
0000f0 87 16 f9 bc 8e 34 80 be 18 85 20 3e aa 96 43 3e
       -0.03040625 -0.25040096 0.15675771 0.19100443
000100 49 ad 6f 3e 1c 44 26 be f3 79 91 3d 68 fb 83 be
       0.23405947 -0.16236919 0.07103338 -0.25777745
000110 bc a3 58 be 6c 78 aa bb bb 4b 81 be 8a 8c 98 bc
       -0.2115621 -0.0052023437 -0.2525309 -0.018621702
000120 85 6e a4 bd d6 62 83 3e f3 f3 5a 3e 7b 52 e2 3d
       -0.080288924 0.25661343 0.21382122 0.11050888
000130 ea 4b bd 3d a2 94 d9 bd d3 8d 09 3d 50 d3 b4 3d
       0.09242995 -0.106240526 0.03358252 0.08829367
000140 d0 93 10 bd a3 dd d0 bd e1 18 22 3c c5 1f 72 3d
       -0.035297215 -0.10198524 0.009893627 0.05911233
000150 9c f8 58 3d ed 5b 48 3e 8e 87 a0 be 53 ed 22 3e
       0.052971467 0.19566317 -0.3135342 0.15910845
000160 44 1f 29 3e 3c be 01 be ea 78 82 3e cd e9 a0 3d
       0.16515833 -0.12670225 0.25482875 0.07857094
000170 63 d0 52 be 29 92 18 3d 4a 39 34 3b 46 37 b6 be
       -0.20587306 0.037248764 0.0027499967 -0.35589045
000180 0e b5 01 3e 4d e8 02 3e f8 c0 73 be d3 3a dc 3c
       0.12666723 0.12783928 -0.2380408 0.026883518
000190 48 e0 2c bd a4 98 1d be 00 47 19 3e 03 00 63 3e
       -0.04220608 -0.15390259 0.1496849 0.22167973
0001a0 95 e0 e4 bd d9 9e 49 3e 4f d6 c9 3d 61 39 98 be
       -0.11175648 0.19689502 0.09855329 -0.29731277
0001b0 0e 09 4e be 4f 45 ef 3c 1a b9 82 bd 98 f5 86 be
       -0.20120642 0.029207854 -0.063829616 -0.26359248
0001c0 36 2b 31 bd d7 74 a6 bd b9 af db bd 0e 69 3d be
       -0.0432541 -0.08127754 -0.10726876 -0.18497106
0001d0 12 03 03 be 76 ca 2a 3e d7 6e a7 3b e9 73 f8 3d
       -0.1279414 0.16678795 0.0051096487 0.12131483
0001e0 56 de f0 3d 95 20 03 bd f5 86 46 be 16 22 46 be
       0.11761157 -0.032013495 -0.1938742 -0.1934894
0001f0 f8 db ea 3d 77 b4 dc 3c 5f 00 1d 3e 25 25 74 bd
       0.11467737 0.026941521 0.15332173 -0.059605736
000200 b9 c4 0c 3e 19 22 42 3e bf ae 4f 3e d5 37 f4 3d
       0.13746919 0.1895832 0.20281504 0.119247116
000210 d2 29 36 3e 9d 8a da bd b2 28 5a 3e 1c 64 45 bb
       0.1778939 -0.1067097 0.21304587 -0.0030119484
000220 c4 f2 28 3e 9c 50 bb 3d 20 4c c4 bd 88 4c 4d be
       0.16498858 0.091462344 -0.09584832 -0.20048726
000230 75 cb 85 3c 89 4d 09 3e 9a 28 cd 3d 83 b8 1e be
       0.016332367 0.13408484 0.1001751 -0.15500073
000240 92 9d ff 3d 38 7b 98 3c 02 dc cc bd 34 07 b4 3d
       0.12481226 0.018613443 -0.10002901 0.087904364
000250 48 39 04 be e0 c7 c1 3d b2 89 a1 3d 24 8a 27 bd
       -0.12912476 0.09461951 0.078875914 -0.040903226
000260 5e 58 6e 3d 8b 1d 09 be bd cd 27 be d1 f9 0c be
       0.058189742 -0.13390176 -0.16387077 -0.13767172
000270 69 fe 57 3e e6 d7 9f bd dc b4 e5 bd f8 eb 99 bd
       0.21093144 -0.07804851 -0.11216137 -0.075157106
000280 bc 89 4e bb f1 06 41 be 26 ac ff 3d 93 b8 66 bd
       -0.0031515202 -0.18850304 0.124840066 -0.056328367
000290 e1 95 ca 3b 44 16 62 3e c3 a9 98 3d 0f 37 26 be
       0.0061824177 0.22078806 0.074542545 -0.1623194
0002a0 a6 67 92 bc 50 65 1c bb 50 1b 71 be 88 b1 40 3d
       -0.017871689 -0.0023864098 -0.23545575 0.047044307
0002b0 d9 38 45 3c 68 4f 55 bc 9d 10 e6 3d 72 51 9c 3c
       0.012037479 -0.01301942 0.112336375 0.019081805
0002c0 8e e8 86 be a9 16 4a 3e 78 4d cf 3c 17 fb 3e be
       -0.263493 0.19735207 0.025305495 -0.1865047
0002d0 58 4e 28 3e f8 9c a2 bc 91 2a cd bc f8 c9 5f 3d
       0.16436136 -0.01985024 -0.025044711 0.05463597
0002e0 f4 99 d9 3d a6 2e 32 3d 28 cd a6 bd 56 c7 05 be
       0.10625067 0.04350152 -0.08144599 -0.13064322
0002f0 02 f1 05 be 0d 6b c0 3d a2 3c cf 3d 0a df 93 3d
       -0.13080218 0.09395418 0.10118987 0.07220276
000300 68 38 4a 3e 0f 5f 55 3e c6 bc 81 3d 8a 0c b5 3d
       0.1974808 0.20837043 0.06334834 0.08840282
000310 bc 03 98 bc 44 28 e5 bd 24 08 08 be bc bd 7d bd
       -0.018556468 -0.11189321 -0.13284355 -0.061948523
000320 bf 6d 18 3d b5 04 26 be d2 80 11 3e cd 8f 24 3e
       0.037214037 -0.16212733 0.14209297 0.1607048
000330 22 cf 96 3b 7b eb ef bd e2 90 cd 3d ec a0 4e be
       0.004602329 -0.11714836 0.100374 -0.20178574
000340 4d c9 5a 3d 9d df b2 3c 62 4f 2d 3e ef 3b 74 3d
       0.05341463 0.021835143 0.16924813 0.05962747
000350 96 2d 35 3e a3 83 f0 3d c0 83 b4 bd a3 c2 42 3d
       0.17693171 0.11743858 -0.08814192 0.0475489
000360 f6 47 51 be 08 50 84 be 47 65 89 bd 20 25 2e 3d
       -0.20437607 -0.2584231 -0.0670877 0.042515874
000370 c9 8b 07 3d a1 41 28 3e c0 8c 87 3e d0 a6 72 3e
       0.033092294 0.16431285 0.2647457 0.23696446
000380 db 52 1c bd 6c 29 f6 bd a9 fb bd be 88 59 7d be
       -0.038164955 -0.12019619 -0.37106064 -0.24741185
000390 d8 64 44 3d 11 48 26 3d fe ed d1 3d b6 ef 24 3e
       0.047947735 0.04059607 0.102504715 0.16107067
0003a0 ac 98 17 3e 0b 9a f4 3d 27 00 3e be 60 97 67 be
       0.14804333 0.11943444 -0.18554746 -0.22616339
0003b0 75 7a e6 bd 8e ac ab bd 20 bf da 3d 6d 68 01 bd
       -0.112538256 -0.083825216 0.106809855 -0.03159373
0003c0 99 23 01 3e fb c1 6d 3e ba ed 58 3e 4e 5d 2b bc
       0.12611236 0.23218529 0.21184435 -0.010459257
0003d0 f4 f1 1e 3d 9b 8c f3 3d 07 5a a1 be 1c 9f 99 bd
       0.038804963 0.11892053 -0.31513998 -0.07501051
0003e0 15 f1 8e 3d d0 6e 59 be 8a 9e 5b 3e 3e 6a 13 3e
       0.069795765 -0.21233678 0.21447197 0.14395997
0003f0 92 f7 5a be f0 10 60 3d 41 50 87 3d 2e b6 7f be
       -0.21383503 0.054703653 0.06607104 -0.2497184

conv1.bias f4 [32]
000000 c8 5b 55 be 2b 95 dd 3d 58 a6 25 3d 65 f2 19 bc
       -0.20835793 0.10819467 0.04044184 -0.00939617
000010 c7 93 df 3d 0d 93 c7 bd 93 e2 52 be 3c b7 93 be
       0.10916858 -0.097448446 -0.20594244 -0.28850734
000020 d4 fd 08 bb 28 36 ca 3c 43 a3 40 ba 5a 33 b5 3c
       -0.0020903246 0.024684027 -0.00073485466 0.022119213
000030 f2 8d e5 bc 21 d8 a3 3d 44 75 3f be e6 74 da bd
       -0.028021786 0.08000208 -0.18697077 -0.10666828
000040 5e 29 a8 bb 9e 5c 74 3d c2 1b 12 3c 20 3f 8b 3c
       -0.0051318845 0.05965864 0.008917751 0.016997874
000050 64 4b 45 bc 74 16 a5 bd cb 95 14 bd 29 b2 38 be
       -0.0120419 -0.08060923 -0.036275666 -0.18036713
000060 e8 3a 05 be c5 19 4c bc 4a d7 38 be ad 9b 9d bd
       -0.13010752 -0.012457316 -0.18050876 -0.076957084
000070 1a 35 0c be 42 28 2c 3d 8f 9b 1d be c3 30 3c bd
       -0.13692132 0.04203058 -0.15391372 -0.04594494

conv2.weight f4 [64, 32, 3, 3]
000000 71 43 1f be 31 8a 3f be fd 1b a1 bd 10 1c 44 bc
       -0.1555307 -0.1870506 -0.078666665 -0.011969581
000010 90 0b d7 bd 90 b2 1d 3b 9c e0 b1 3d 4b 46 88 3d
       -0.10500252 0.002406273 0.08685419 0.06654032
000020 71 c9 e6 3d 75 60 e1 3b d5 4a 53 bd 0d f5 1d 3d
       0.11268891 0.0068779537 -0.051585037 0.038563777
000030 d5 5e 0e bd 80 21 a7 bd e9 b2 8d bd 88 74 69 3c
       -0.034758408 -0.081606865 -0.0691889 0.014248975
000040 a1 26 80 bd de ab 25 bb 31 ef 21 3b 7e 65 8c bd
       -0.06257368 -0.0025279443 0.002470922 -0.068552956
000050 f9 e4 9c 3b 99 87 24 3b e8 8d f2 3b 7e 9f 11 bc
       0.004788038 0.0025105237 0.0074021704 -0.008888124
000060 f1 ff 13 bd ef c4 0f 3d 66 48 90 bd 64 4f 6f bc
       -0.036132757 0.03509992 -0.07045059 -0.014606331
000070 53 a0 38 3d 21 35 9a 3c aa 19 37 bd a7 60 9d bd
       0.045074772 0.018824162 -0.04470221 -0.076844506
000080 76 f0 af bd b2 1d 23 bd 51 86 8e bd 11 27 2b bd
       -0.08590786 -0.03982324 -0.069592126 -0.041785304
000090 40 ae e4 bd 9c 77 02 be 9b 76 89 bd bf a2 82 bd
       -0.11166048 -0.1274094 -0.06712075 -0.063786976
0000a0 7c e5 eb 3c d4 30 f4 3c 29 c7 33 3d 6e a3 d9 3d
       0.02879595 0.02980844 0.043891106 0.10626875
0000b0 cf 05 83 3d d8 ee 1d bd 19 e7 5f 3c 1c d7 7c 3d
       0.06397592 -0.038557857 0.013665938 0.06172858
0000c0 69 50 3b 3d f2 9b a2 3d 7f 71 b7 bc dd 84 89 3d
       0.045730982 0.079399005 -0.022392986 0.06714795
0000d0 f8 ea 22 bb eb 19 ce bc e0 07 67 bd 55 ca d9 bc
       -0.002485929 -0.025158843 -0.056403995 -0.026585737
0000e0 ab 34 36 3d 0b 89 9b bd 93 b3 90 bd e7 0a 9f bd
       0.04448382 -0.07594498 -0.07065501 -0.07765751
0000f0 54 ed d1 3c 8b 0a 17 bd 21 86 bc bd 9c 3a a4 3d
       0.025625862 -0.03687529 -0.092052706 0.08018991
000100 0b a8 b0 3c e0 ca 63 3d f7 56 1c 3e 71 9f fa 3d
       0.021564504 0.0556134 0.1526755 0.12237442
000110 27 a4 c3 3b b6 d7 88 3d ee 15 c9 3d 09 b0 70 3c
       0.005970496 0.066817686 0.09818636 0.014690408
000120 e8 cf 4d 3d fb e9 21 bc 25 07 a0 3d 44 5c a1 3d
       0.050247103 -0.009882445 0.07813863 0.078789264
000130 2c fe 68 3d 07 41 0f b9 5f cf 94 3d 0a 07 93 3b
       0.056883022 -0.00013661767 0.072661154 0.004486923
000140 6b 13 27 3d 17 58 1a bd 5b 3b 96 bc 6e 15 77 bc
       0.040790003 -0.037681665 -0.01833885 -0.015080793
000150 bf 0e 8f bd 75 38 09 be ef 6b dc bd 59 24 ea 3b
       -0.069852345 -0.13400443 -0.10762774 0.0071454463
000160 7e e7 4f ba 16 c9 0d bd 22 e6 58 3d 06 86 0e bd
       -0.00079309184 -0.0346156 0.052953847 -0.034795783
000170 a7 dc a9 ba bf 64 bf bc 74 60 df bd 93 9c 98 bd
       -0.0012959436 -0.02336347 -0.10907069 -0.07451739
000180 77 a9 e0 3c 66 76 77 bc 81 51 02 bd 59 a7 ad 3c
       0.027424557 -0.015103912 -0.03181601 0.021197962
000190 bb 03 be bc d7 49 e3 3c 9e 62 1f bc 83 b0 30 bd
       -0.023195138 0.02774517 -0.009728102 -0.043137085
0001a0 89 45 dc bc 92 73 df 3a 4c b8 c2 bc c2 4c ad bc
       -0.026888626 0.0017047992 -0.02376952 -0.021154765
0001b0 8f d0 e9 3c 49 eb e5 3d b6 9f 9c 3d 01 12 d8 3d
       0.028541831 0.11226518 0.0764765 0.10550309
0001c0 66 8c fc 3d 1d d1 01 3e f7 7d 0a 3e 18 45 13 3e
       0.123314664 0.12677427 0.13524614 0.14381826
0001d0 1c 37 a9 3d 94 82 20 3d d2 65 39 bd a8 e8 ee bc
       0.082624644 0.03918703 -0.04526312 -0.029163674
0001e0 4f a8 c4 bc 27 f3 6d bd aa 24 19 3d 36 d7 70 bc
       -0.024006037 -0.058093216 0.03738848 -0.014699748
0001f0 9e 4e 57 bd 4d c7 26 3a 76 8c 54 3b 05 0d 85 3c
       -0.05256521 0.00063620956 0.0032432354 0.01624156
000200 8c f8 5c 3d 43 4d 43 bd b6 61 64 3d 8a a9 1b bc
       0.05394797 -0.047681104 0.055757247 -0.0095008705
000210 0a a4 f7 3c 3f 4e 41 bd 29 e8 6b 3c b8 c9 c7 3c
       0.030229587 -0.047193762 0.014398613 0.02438818
000220 ca a1 05 3c 6a ce 2c 3c 0a f1 e6 3d 74 8d f3 3d
       0.008156249 0.01054726 0.11276443 0.118922144
000230 f6 7d 12 3d 9d 63 99 3d d2 ce c2 3d 5e 43 ee 3d
       0.035764657 0.07489703 0.09512104 0.11633943
000240 c4 ef e3 3c d1 99 08 bd 56 95 db 3c 5d 08 5c 3d
       0.02782429 -0.033349816 0.026804607 0.053718913
000250 bb 41 0a 3d a7 06 de 3b a3 81 09 3d 1a dd 80 3d
       0.03375409 0.0067756954 0.033570897 0.06292172
000260 6f 91 98 3d 5c 65 8c b9 50 81 65 3b d9 f8 9a 3c
       0.07449614 -0.000267784 0.0035019703 0.018917488
000270 68 92 39 bd 6d 75 28 3d 90 7e 0a 3d d6 5d 08 3d
       -0.04530564 0.04112761 0.033812106 0.033292614
000280 d1 26 19 3d e4 fd 31 bd 8f d8 92 bd 73 76 26 bd
       0.037390534 -0.04345502 -0.071702115 -0.040640306
000290 80 f1 5b 3d 0f bc 43 bd 9f 86 93 bd 3d 2f 8d bd
       0.05369711 -0.04778677 -0.07203411 -0.068937756
0002a0 56 55 69 bd e5 3d 33 3c b5 23 ac 3c 2a 08 43 bd
       -0.05696615 0.01094005 0.02101312 -0.047615208
0002b0 cf d9 64 bc a0 c8 03 3d 1b e9 fc bc 5d 87 56 bd
       -0.013967945 0.032173753 -0.030872872 -0.052375186
0002c0 ef 79 0a 3d dd 64 1b bd 0e 67 77 3a 2d b2 6e bc
       0.03380769 -0.037937988 0.00094376586 -0.014568848
0002d0 ff 8b 99 3c d1 8b 91 3c d5 e6 e9 3d 2c a7 8b 3d
       0.018743513 0.017766865 0.11420981 0.06818995
0002e0 11 cb 7b 3d ec d8 e6 3d f1 6f 49 3d ad bf e7 3d
       0.061472956 0.11271843 0.04917902 0.11315856
0002f0 11 32 16 3d 99 97 b1 3d 5a 35 bc 3d ba f5 78 3d
       0.03666884 0.08671493 0.091898635 0.060781218
000300 a5 dc 38 3d 4f c2 84 bb a7 1e a6 3c 07 6a a4 3c
       0.045132298 -0.0040514837 0.020278288 0.020070089
000310 62 98 50 bd 37 6e d1 3a 90 93 35 3d 29 a7 17 bd
       -0.050926574 0.0015978281 0.04433018 -0.03702465
000320 e1 7c c3 3c 95 4d 53 3c 3c 42 88 b9 6b f6 06 bd
       0.023863258 0.012896915 -0.0002598929 -0.032949846
000330 75 49 83 bc c8 31 64 3b f2 fe 25 3d f0 c1 91 3d
       -0.016026238 0.003481971 0.040526338 0.07117069
000340 8a 0f 02 3e 0c 1e 9c 3d 9e 8d 74 3d 4a d7 65 3e
       0.1270124 0.076229185 0.05970537 0.22445408
000350 67 ef 2d 3e 4c 50 46 bd 17 83 db bb 0f 73 3c bd
       0.16985856 -0.04841642 -0.0066989767 -0.046008166
000360 a1 9d 14 3c 00 00 81 3d ce 7e 91 ba 52 3f 1c bd
       0.009070785 0.06298828 -0.0011100413 -0.038146324
000370 97 5f 0a bc 71 d7 4f 3d 74 ad d8 3c d0 96 28 3c
       -0.008445642 0.05074257 0.026449896 0.010289863
000380 d8 70 52 3d 84 1b 0f 3d ac 6a a1 bc d4 89 8b 3c
       0.051377147 0.03493835 -0.019704185 0.017033495
000390 0c 91 4e 3e 72 9a f4 3d 28 b8 17 3e 3f 33 30 3e
       0.20172518 0.119435206 0.14816344 0.17207049
0003a0 fc 85 89 3d 3c 83 5d 3d 7f 97 07 bd cd 0a 40 bd
       0.067150086 0.054080233 -0.033103462 -0.0468853
0003b0 03 ac 22 bd b5 d3 96 3d 6a 53 a0 3d 8f 47 8e 3d
       -0.039714824 0.07364599 0.0782841 0.069472425
0003c0 8c 7d 49 3d 41 5f a1 3b d4 71 7e 3d 16 a5 8b bd
       0.049191996 0.004924685 0.062120274 -0.06818597
0003d0 1d 3c f2 3a aa ca 88 bc e3 8d 69 bd 2f 78 29 bd
       0.001848105 -0.0166982 -0.05702008 -0.04137438
0003e0 b0 82 d1 3c 4e ea a7 3a ef 26 fe 3c 73 dc e5 bc
       0.025575012 0.0012810917 0.031024424 -0.02805922
0003f0 09 cc 5d 3d 4c 8e 3b 3d 78 b5 94 3d 55 76 e2 3d
       0.05414966 0.04579 0.07261175 0.11057726

conv2.bias f4 [64]
000000 a4 79 bd bd e9 9a 56 bd 99 e2 b1 3d 65 2a 93 bd
       -0.09251717 -0.052393828 0.08685798 -0.071858205
000010 a4 e9 45 3d 19 48 08 3e 7d 7c 48 3d d2 66 b6 3d
       0.04831852 0.13308753 0.048946846 0.0890633
000020 8a 43 42 bd 6a d2 89 bd 94 96 e5 bd b1 a3 57 3b
       -0.04742769 -0.067295864 -0.11210361 0.0032903964
000030 85 43 88 3c fb c9 0b 3e 94 17 35 3e df cd b5 bd
       0.016633758 0.13651268 0.17684776 -0.088771574
000040 f6 f1 a8 bd a4 fe 03 3d 86 9b 69 bc 14 9c 85 3d
       -0.082492754 0.032225266 -0.014258271 0.0652391
000050 cf 80 1e 3e 81 45 1b be f7 cc d0 bc 33 f1 31 bd
       0.15478824 -0.15163232 -0.02548836 -0.043442916
000060 6e c5 a0 bd 42 80 c8 3c 99 ba 11 be 72 1f c4 3d
       -0.07850157 0.02447522 -0.14231338 0.0957631
000070 d6 15 3e be c0 bd d8 3d 37 02 87 3e 14 33 13 be
       -0.18563017 0.10583067 0.26368877 -0.14374954
000080 37 42 32 bc 1d e3 10 3e da bd 0f bd e4 3d 84 bc
       -0.010880045 0.14149137 -0.035093166 -0.016142793
000090 52 46 a4 3d 69 64 85 3d fb 5e a1 bd 37 b1 bb 3d
       0.08021225 0.06513292 -0.07879444 0.091646604
0000a0 e0 75 17 bd b6 b4 06 3d a5 46 a9 3d 64 28 59 3d
       -0.03697765 0.032887183 0.082654275 0.053017035
0000b0 d8 e6 8f 3c e7 7d 0f be fe de 3f 3e 52 93 55 3d
       0.01756613 -0.14012872 0.18737409 0.05214245
0000c0 81 bf 8f 3b fa 0e e7 bd c7 f7 88 bd 1b a9 ba 3b
       0.0043868427 -0.112821534 -0.06687885 0.0056964285
0000d0 6e 6e 88 bd c1 9b 14 3d de 16 b7 3a 24 ae 99 3c
       -0.06661688 0.03628135 0.0013968607 0.018759795
0000e0 2b 4f 71 bd 71 76 26 3d 7e 46 f4 3d 52 51 a0 3c
       -0.05891339 0.0406403 0.11927508 0.019570027
0000f0 cf 39 a1 3b cf a5 4d 3e 41 77 0a be 40 33 e9 3c
       0.0049202214 0.20082782 -0.13522054 0.02846682

conv3.weight f4 [64, 64, 3, 3]
000000 b9 b8 1d 3e d8 84 0d 3e 05 ec f6 3d df 97 20 3d
       0.15402497 0.13820207 0.12056736 0.039207336
000010 8e 85 fe bb 7d 8b 03 be 05 f5 2b bd ba 1d 07 be
       -0.007767386 -0.1284618 -0.041981716 -0.13194934
000020 8c 2c 1f be cf df 41 3d b8 45 40 3d d8 c1 50 bd
       -0.15544337 0.04733258 0.04694149 -0.050966114
000030 bc 90 0d 3e f1 b5 ee 3d c6 c1 00 be f9 94 d3 3c
       0.13824743 0.11655796 -0.12573919 0.025827872
000040 ba 12 74 3d 54 88 92 3c 9b e7 20 3c 31 94 b4 3d
       0.05958817 0.017887272 0.009820844 0.08817328
000050 41 22 1f 3e 98 41 d2 3d aa e4 db 3d 04 7a 9d 3d
       0.1554041 0.10266417 0.107369736 0.07689288
000060 df b1 2b 3d 2c 02 bf 3d 5d 60 4e bc b2 ac 36 bc
       0.041917678 0.09326586 -0.012596217 -0.011149572
000070 5a 19 81 3d 87 d7 c8 3d 39 00 e9 3c e0 72 b4 3d
       0.063036636 0.098067336 0.028442489 0.08810973
000080 f1 91 74 3d f6 32 03 3e 11 9a e7 3c c1 06 a2 3d
       0.059709493 0.12812409 0.028271707 0.079114445
000090 89 d3 cf bc 0b fb 8b 3d 82 07 76 3d 3b 35 3c bd
       -0.025369423 0.06834992 0.060065754 -0.045949202
0000a0 d9 8e 33 be 1f 73 52 be 42 95 f4 bd fd 36 11 be
       -0.17534961 -0.20551728 -0.11942531 -0.14181133
0000b0 8b 25 22 be a9 2c 2a be 9d 5b 35 bd 79 ff 2f bd
       -0.15834634 -0.16618599 -0.044276822 -0.042968247
0000c0 30 06 82 bd 44 7b 70 3d e7 e9 d8 3d 26 f3 1f bd
       -0.063488364 0.058711305 0.10591488 -0.039050244
0000d0 8f db 4a 3d ae 93 b0 3d a2 aa 7f ba 5c d5 ea 3d
       0.049525794 0.08621918 -0.00097529043 0.11466476
0000e0 8c 04 45 3e 9d d6 a2 bd 5d 56 0b bd e5 e1 9e 3d
       0.19240016 -0.079510905 -0.03401791 0.0775793
0000f0 fd f3 cd bd 07 98 45 bd 04 11 ce bd 0c 0f 18 3d
       -0.10056303 -0.048240688 -0.10061839 0.037123725
000100 dd 84 42 bd 5b 03 e8 bd fe 81 0b bc 2b dc b1 3c
       -0.04748999 -0.11328765 -0.008514879 0.02171143
000110 3f 8d 71 3d e1 b3 12 3d 16 49 c1 3d 31 90 84 bd
       0.058972593 0.035816077 0.09437768 -0.06472815
000120 ad ab 45 be 58 38 26 be cd 31 34 be 10 46 81 bd
       -0.1930377 -0.16232431 -0.17597122 -0.063121915
000130 68 00 9c bd 13 08 4f 3d 6e 05 ec bc ef c5 0b 3d
       -0.07617265 0.05054481 -0.028811183 0.03412431
000140 fd 83 c6 3d 7a d6 e4 3c 19 c8 30 3d 96 92 ec 3d
       0.096931435 0.027934302 0.043159578 0.115513965
000150 66 ba 64 bd 99 18 8e 3d 30 8f 81 bc 5b ad e9 bd
       -0.055841826 0.069382854 -0.015815347 -0.11410018
000160 6a c1 51 bd 60 0b 4e be cd a9 0c 3d c3 a7 e0 3b
       -0.051209845 -0.20121527 0.034341622 0.0068559363
000170 21 cd b8 bc ad 52 8c 3d 0e 4d d6 3d 27 1c cf bb
       -0.02255875 0.06851707 0.10463916 -0.0063204947
000180 79 0d fd bd ea 79 c1 bd fe 6d 21 3d e2 df 29 3d
       -0.12356085 -0.094470814 0.039411537 0.041473277
000190 05 ca 9e 3d ec c9 84 3d 51 4c 0f bc 14 18 8a 3c
       0.07753376 0.06483826 -0.008746223 0.016857184
0001a0 82 9a 52 bc 02 b0 90 bd bf a2 a5 bd c1 52 95 bd
       -0.01285422 -0.07064821 -0.08087682 -0.07291175
0001b0 c5 25 e1 3c 19 79 c8 3b 22 23 0c 3e ed b2 48 3d
       0.02748383 0.0061179516 0.13685277 0.048998762
0001c0 a3 b6 d8 3c b7 83 85 3d c9 c2 6f bc 91 df 5f 3d
       0.026454275 0.06519263 -0.014633843 0.05465657
0001d0 12 d5 6d 3d 63 7d 1c 3d 7d 33 fc 3d 95 80 0a 3e
       0.058064528 0.038205516 0.12314508 0.13525613
0001e0 1b d8 08 bd b0 3a 28 bc f8 2f bb 3d 35 21 8c bd
       -0.03340922 -0.010267898 0.09140009 -0.06842271
0001f0 3a fa 25 be 54 2f ce bd 7f ab 95 bd 56 d2 72 3d
       -0.16208735 -0.10067621 -0.07308101 0.059282623
000200 17 d8 d9 3d c4 6f 8d bd 03 5a be 3d cb db 14 3e
       0.10636919 -0.06906083 0.09294512 0.1453697
000210 8c 7a 02 be 9c 27 c2 3c 5f 8b f7 3d 9f d7 9a 3c
       -0.1274206 0.023700528 0.1208713 0.018901644
000220 df 6b 20 3c 7e 30 1d bd df ef 82 bc ef ef cf bc
       0.0097913435 -0.038376324 -0.01598352 -0.025382964
000230 bf 80 eb 3c 81 c1 2e bd bb 27 0d be dd c2 ab bd
       0.028747914 -0.04266501 -0.13784687 -0.083867766
000240 17 e9 a0 3d e9 6d 89 bd 53 e3 7d 3d ad e0 1f bd
       0.07856958 -0.06710417 0.06198437 -0.039032627
000250 c7 51 82 bd 01 ba 0b 3e ec f1 c1 bd 25 25 cc bd
       -0.06363254 0.13645174 -0.09469971 -0.09968022
000260 c4 ac 7c bc c5 5c af bc ab d2 9b bc da 19 9e 3b
       -0.01542205 -0.02140654 -0.019021353 0.004824859
000270 72 4b 0a bd 02 9d df 3c 17 83 f6 3d cd 3a af bc
       -0.033763357 0.027296547 0.12036722 -0.021390343
000280 2d d7 2e 3d 18 96 50 3e 7a 70 28 bc 96 a0 7d bd
       0.042685676 0.20369756 -0.010280723 -0.061920725
000290 f5 f3 66 3d 85 67 c9 3d 49 6f 66 bd c9 1e a5 bd
       0.056385 0.09834198 -0.056258474 -0.080625124
0002a0 39 02 92 bc e6 bb 12 bd 5a 85 d8 bc 22 c6 0e 3e
       -0.017823325 -0.035823725 -0.026430774 0.13942769
0002b0 71 45 ed 3d 44 c4 69 3b a3 67 f3 3c 5f d3 85 bd
       0.115855105 0.0035669962 0.029712504 -0.065344565
0002c0 14 a2 d7 3d 8c 1d 65 be 62 47 d5 bd 73 13 23 3c
       0.10528961 -0.22374552 -0.10414006 0.0099533675
0002d0 d6 c5 96 bc 39 12 aa bd 4e 5d a7 bd 48 33 03 3e
       -0.018404882 -0.08304257 -0.08172093 0.12812531
0002e0 eb 62 e3 3d a6 76 4a 3c 83 d1 64 3e 12 e0 73 3e
       0.111028515 0.01235739 0.22345547 0.23815945
0002f0 91 c0 bf 3d 4f e7 b0 3d f0 9a 84 3d ef 34 94 3d
       0.09362901 0.086378686 0.064748645 0.07236659
000300 ce ea 2d bd 7d 84 86 bd 94 fb 14 3c a7 fa 3b be
       -0.042460255 -0.06568239 0.009093184 -0.18357335
000310 67 02 f3 bd 12 40 f3 bd 8f 1f e9 bb 26 b9 12 3d
       -0.118656926 -0.11877455 -0.007114358 0.035821103
000320 1e e7 71 bd 68 df a8 bc 04 2c b1 bd 23 65 48 bd
       -0.0590583 -0.02061434 -0.086509734 -0.048924576
000330 55 79 d6 3d 57 d0 51 bd 0d 72 ef bd 1d f1 1d bd
       0.10472361 -0.05122408 -0.11691675 -0.03856002
000340 f9 d5 81 3c fb d4 8b 3d 5b d5 d4 3d 97 31 57 3b
       0.0158491 0.06827732 0.10392257 0.0032835954
000350 cb ee ce bb 33 34 fe bb 4e 06 01 be ea f5 ff bc
       -0.0063150874 -0.0077576875 -0.12600061 -0.03124519
000360 d7 d6 33 3d a6 f6 a5 3c f4 aa 1a bd cc 95 3d bd
       0.04390606 0.020259213 -0.03776069 -0.046285436
000370 b6 78 f3 bc 75 88 ef 3c fc 41 91 bd 66 4c 89 bd
       -0.029720645 0.029239872 -0.07092664 -0.06704025
000380 9d 82 f9 bd aa c7 d5 3d 37 b4 20 3e 18 05 38 3e
       -0.12183116 0.104384735 0.15693747 0.17970693
000390 0c 8e 90 3b ed 09 b8 3c b4 34 9c 3d d5 43 de bd
       0.0044114646 0.02246567 0.0762724 -0.10852782
0003a0 68 68 7f ba 77 ff fa 3d 78 60 9b 3b 8f 5f 87 3d
       -0.0009743036 0.12255757 0.0047417246 0.06610023
0003b0 0a 48 c2 bc 08 5d 09 3d 4a 45 e8 bc e7 4e 25 be
       -0.023715992 0.033535987 -0.028353352 -0.1614338
0003c0 9e 84 5b 3c 01 b2 fd bd eb a1 11 be 3d 5c cc 3d
       0.013398318 -0.12387467 -0.14221923 0.099785306
0003d0 62 d3 0e be 01 08 3e be f9 7a bd 3d cf 83 45 3c
       -0.13947824 -0.18557741 0.09251971 0.012055351
0003e0 9f fe 38 bd 4e 1b 75 3c d5 9d a2 3d 2c 56 a1 3d
       -0.0451647 0.014960123 0.0794026 0.07877764
0003f0 82 ac a9 3c 3f f3 ec 3d a6 52 2c 3e 14 34 c5 b9
       0.020712141 0.11569833 0.16828403 -0.0003761357

conv3.bias f4 [64]
000000 06 41 0e 3e f6 81 b8 bc ab 12 f6 3d 6b 8e 92 bd
       0.13891992 -0.022522908 0.120152794 -0.0715607
000010 ab c6 88 3b 77 82 43 bd 7e 80 ec bc a9 db d3 3d
       0.0041740737 -0.047731843 -0.028869864 0.10344631
000020 e7 ef 42 3d bf 75 39 bd 7b 55 c4 3d 61 27 17 3e
       0.04759207 -0.045278307 0.095866166 0.14761116
000030 21 a6 f5 bb e6 5e ed 3d 79 92 0d bd 48 31 e0 3d
       -0.0074966107 0.11590366 -0.034563515 0.109469
000040 5c e1 96 3b 1b b9 b8 bd 45 ad 6c bb eb 71 1b bd
       0.0046045016 -0.09019681 -0.003611402 -0.037950438
000050 2b 25 de bc 06 43 92 3b 91 70 bf bc 59 b7 03 3e
       -0.027117332 0.004463556 -0.023369106 0.1286291
000060 4a 9b b3 3d 1d 09 1e 3e 0f d7 49 3d 49 60 ba 3c
       0.087698534 0.15433164 0.04927736 0.02275099
000070 f2 a0 14 3e ae 24 60 bc 1a 6d f5 bc 74 95 91 bc
       0.14514521 -0.01368062 -0.02995925 -0.01777146
000080 1d d7 88 bb 92 3f 88 3d 79 46 2c 3c 1c 15 0c 3e
       -0.004176034 0.0665275 0.010514849 0.13679928
000090 c6 ef 2a 3e 59 94 02 3d 81 3a e2 3b 8c 18 9c 3d
       0.16693029 0.031879757 0.006903947 0.076218694
0000a0 75 41 58 3e 59 f5 74 bd 41 76 a0 bb ef 67 82 bc
       0.2111872 -0.059804294 -0.0048969095 -0.0159187
0000b0 82 a1 7d 3c 37 af 73 bc 40 e6 cd 3d 4e eb f6 3d
       0.015480401 -0.014873317 0.10053682 0.120565996
0000c0 95 30 cb 3d 09 60 aa bb d3 34 73 bd 57 24 92 bc
       0.09921376 -0.0051994366 -0.05937655 -0.017839594
0000d0 f1 ec 93 3b eb 4c aa bd 53 53 89 3d 8b 90 5e 3d
       0.0045143296 -0.08315452 0.06705346 0.054337066
0000e0 c5 3e 28 bd 4d f0 72 3b 9e 15 02 3e 2e df dd 3d
       -0.041075487 0.00370695 0.12703559 0.10833584
0000f0 1d 63 86 3d 03 59 23 3d d3 6e 34 bd 35 de 27 3e
       0.06561873 0.03987981 -0.044051003 0.16393359

fc1.weight f4 [64, 1024]
000000 f4 ee 04 3d 42 3f df 3c af bb 18 bd 39 8b 27 3d
       0.032454446 0.027251843 -0.037288364 0.040904257
000010 d1 ac 48 bd 10 81 9b bd 07 9c 4f bc d3 72 a8 3d
       -0.048992936 -0.07592976 -0.012671477 0.08225026
000020 56 8d bb 3c 7f 19 c5 3d 1e 0e cf 3d 85 01 e9 bc
       0.022894543 0.096240036 0.101101145 -0.028443107
000030 d9 51 49 bd 8f ef 27 bd f7 66 c7 bd d6 9f 73 bd
       -0.04915032 -0.040999945 -0.09736436 -0.059478603
000040 6f 9d 3d bc d0 20 49 be 01 b1 55 bd 8e 79 70 be
       -0.01157318 -0.19641423 -0.052170757 -0.2348387
000050 99 29 91 3b d4 5f d3 3d 19 f4 f7 bc 10 eb 14 bd
       0.0044300077 0.10321012 -0.030267762 -0.036356986
000060 92 1c a9 bd fc 05 fc 3c 45 b7 dc 3c 73 50 8f bd
       -0.082574025 0.030764572 0.026942858 -0.06997766
000070 b7 99 1b bd 77 65 1d bd bd 3a 4e bd 71 82 b3 bd
       -0.03798839 -0.038426843 -0.050348986 -0.08765114
000080 62 a7 95 3d 23 ca 9a 3c 41 2d 35 3c e7 2c 87 3d
       0.07307316 0.018895214 0.011058153 0.06600361
000090 e7 c4 35 bc 49 7d 13 3c ed 5e d9 3c 87 5b 95 3d
       -0.011094308 0.009002038 0.026534522 0.07292848
0000a0 69 18 07 3d c8 d7 a3 3d ea 89 5c 3d 0f c9 26 3e
       0.032982264 0.080001414 0.053842463 0.16287635
0000b0 d9 eb 6a 3c 7b 29 75 3d 4a c7 46 3e 3e 1d 83 3e
       0.014338457 0.059854012 0.1941196 0.25608248
0000c0 4d e0 dd bd 89 42 f4 bd a0 d5 5f bc 32 ce 91 bc
       -0.108337976 -0.11926753 -0.013661772 -0.017798517
0000d0 15 55 06 3d cf d9 d0 bd c9 af 8f bd 96 c3 8c 3d
       0.032795984 -0.10197794 -0.0701595 0.068732426
0000e0 e8 20 66 3d df 87 58 bc ac 17 da bd 5e a7 06 3d
       0.056183726 -0.013215988 -0.10649046 0.032874458
0000f0 6a c0 28 3e ac 39 d5 3d 9c ba d0 3d e4 88 f8 3d
       0.1647965 0.10411391 0.10191843 0.12135485
000100 54 3f 06 be fb 82 12 be 1f 4e e0 bc 11 e0 95 3c
       -0.13110095 -0.14307778 -0.027381001 0.01829532
000110 21 d5 1d be 8f 82 f5 3a 8d 70 15 3a 5e 19 23 3d
       -0.15413333 0.0018730926 0.00057006703 0.039819114
000120 e7 7e d9 bc bf fe f8 3c 07 99 2d 3d 23 44 e8 3d
       -0.02654977 0.03039491 0.042382266 0.11341121
000130 96 30 82 3d 91 f2 9f 3d b1 2c bb 3a ba 1b 58 3d
       0.06356923 0.07809938 0.0014280287 0.052760817
000140 20 ee cf 3b 78 42 b1 3c b0 27 c6 3c ae f5 a7 3c
       0.0063455254 0.02163814 0.024188846 0.020502891
000150 80 a4 0d 3a 00 ab 31 3c ae d6 87 3c 40 78 6e 3b
       0.00054032356 0.010843992 0.01658186 0.0036387593
000160 90 87 36 3b a8 31 59 bc fb d7 07 3c 8c ad de 3c
       0.0027851798 -0.013256468 0.00829124 0.027182363
000170 1c db 5b 3c d2 51 ec 3c 26 8d bf 3c 56 bc b0 bc
       0.013418939 0.028847609 0.023382735 -0.02157418
000180 de b8 94 bc 94 b8 bb bc a9 3d f5 bc d4 6b b4 3c
       -0.018154558 -0.022915162 -0.029936628 0.022024073
000190 d4 b1 0d 3d 64 d1 dd 3c 47 a5 12 3b 5a d5 73 3c
       0.03459342 0.027077384 0.0022376345 0.01488241
0001a0 0b 9d ba bb 5b 98 e0 bc 23 7b 00 3d d0 95 f1 3b
       -0.0056949905 -0.027416399 0.031367432 0.0073725954
0001b0 bd 94 60 3c 02 62 65 bb 75 49 d8 3c f1 6c db 3b
       0.013707337 -0.0035001044 0.026402215 0.0066963364
0001c0 bc d5 a7 bd 16 37 8e 39 31 96 ae 3c 69 9d ee 3b
       -0.081950635 0.00027125393 0.021311851 0.0072819483
0001d0 06 c1 85 bd ed fd ea bc e3 ea d8 3b e4 3d df bc
       -0.06530957 -0.028685534 0.0066197976 -0.027251191
0001e0 03 ab 10 be 69 e9 a7 bc 2c c6 9c 3d 38 1f c1 bd
       -0.14127736 -0.02049704 0.07654986 -0.09429783
0001f0 be c7 82 be 00 bf 93 3d c0 a3 b9 bc 88 ee 8d bd
       -0.25543016 0.07214165 -0.02266109 -0.06930262
000200 45 fd 8b 3d c9 4a 82 3e 11 99 ac 3d 39 a3 06 bd
       0.06835417 0.25447682 0.084276326 -0.032870505
000210 14 05 b9 bd 4d 85 8d bc 38 ff 98 bc 08 b4 d9 bc
       -0.09034172 -0.017275477 -0.018676385 -0.026575103
000220 ef 39 6a bc 0c 51 af 3b 8b 7b 7e 3d 35 c6 98 3d
       -0.014296039 0.0053502377 0.06212954 0.0745968
000230 10 73 75 bd 22 b2 57 3c 32 1a 45 bc ee a6 03 3e
       -0.059924185 0.013165029 -0.012030171 0.12856647
000240 e3 c3 f8 bd af ff fb bd b9 7a 19 bd 64 65 00 bd
       -0.121467374 -0.12304627 -0.037470553 -0.031346694
000250 ad b2 13 3d 69 96 af bd e8 00 a2 bd d1 ea 21 bc
       0.03605907 -0.0857361 -0.07910329 -0.009882645
000260 35 03 0a 3d a2 16 25 bc 58 57 9a 3d 3e 09 15 3e
       0.033694465 -0.010076197 0.07536191 0.14554307
000270 03 a1 16 3e bc 55 b8 bb 17 e2 bc 3d 84 17 94 3e
       0.14709859 -0.0056254547 0.09222811 0.2892419
000280 ce 1f 40 bd b0 9a f0 3b f9 01 f0 bd b3 55 f8 bd
       -0.04690533 0.007342659 -0.11719126 -0.12125721
000290 ef e2 1e 3a 51 59 dc bb b1 c8 53 3d f8 b6 cb bd
       0.00060610374 -0.0067245145 0.051705066 -0.09947008
0002a0 e8 39 97 bc 61 eb 09 3e 65 c9 e7 3d c8 5a 7f 3c
       -0.018460229 0.13468696 0.1131771 0.015585609
0002b0 02 ae f3 3d a0 50 02 3e e1 de 91 3d e4 46 ed 3c
       0.11898424 0.12726068 0.07122589 0.028964467
0002c0 34 9a e7 3d bc 34 5c 3c 3d 72 34 bd 54 eb c1 bd
       0.11308709 0.013440307 -0.04405426 -0.094687134
0002d0 c3 3f f6 3c 6b 68 b5 bd 83 7c 37 be 18 0e b8 bd
       0.0300597 -0.08857807 -0.17918591 -0.08987063
0002e0 9e 20 bf bd 94 1a bc 3d c3 70 b0 ba ea 1d 12 bd
       -0.09332393 0.09184757 -0.001346134 -0.03567306
0002f0 60 3a f8 bd 70 f0 f2 3d b3 a1 08 3c 59 ae 86 3c
       -0.12120509 0.11862266 0.008339333 0.016440557
000300 c2 40 82 3d ab 5d c1 3c 3a 82 61 ba eb e9 7e 3d
       0.06360008 0.023604235 -0.0008602474 0.0622348
000310 bf 2e 1c bd b6 24 01 3e e9 04 9c ba 3e 06 be bd
       -0.038130518 0.1261166 -0.0011903319 -0.09278534
000320 ec 92 d5 3b 9a a3 34 3e 55 d0 c2 3d 3d cf 8c 3d
       0.0065177586 0.17640534 0.095123924 0.06875465
000330 b3 76 08 be f1 cb 24 be 63 81 09 3c 75 18 0a 3e
       -0.1332653 -0.16093422 0.008392665 0.13485892
000340 f6 36 ed 3c c7 26 69 bc 7f 32 58 3a a2 34 19 bd
       0.028956871 -0.014230437 0.00082472706 -0.03740371
000350 cc 6d b6 3d b9 e6 04 3d 1e 07 c5 3c 63 1d d5 bb
       0.08907661 0.032446597 0.024051245 -0.0065037473
000360 bd 02 0d 3c b7 90 62 bc f7 1a ac 3d fd df 28 3d
       0.00860661 -0.013828448 0.08403581 0.041229237
000370 61 c8 4d 3d ff 8b eb ba 0f c8 8f 3a 87 ef 7e 3c
       0.050239924 -0.0017970799 0.0010969656 0.015560037
000380 8d ed 1a bd 7a f1 42 bc bf c1 6c 3c 67 6d 2f bc
       -0.037824202 -0.011898393 0.01445049 -0.010707236
000390 5b c4 0a 3c d2 dd 00 bc 04 1b d1 bc c5 f9 d2 3c
       0.008469666 -0.007865386 -0.025525577 0.025753865
0003a0 1e f6 b5 ba b1 3b 83 3c b6 c8 9a 3b 2e 95 da 3c
       -0.0013882553 0.016019674 0.0047236336 0.026682463
0003b0 a1 25 3c bd 0c 28 ac 3b ec 3c fa bb 9e 33 9a 3b
       -0.045934323 0.0052537974 -0.007636657 0.0047058603
0003c0 fd 63 36 bd 1b de 14 bd 00 3a 37 be 11 01 12 be
       -0.04452895 -0.03634463 -0.17893219 -0.1425822
0003d0 f1 fc 84 3d 7e cc 9a bd bb 6a c5 bd 81 9f 8d 3c
       0.06493557 -0.07558535 -0.09639498 0.017287971
0003e0 90 11 72 3b 83 20 ca bd 25 63 1b be 0b c1 96 3d
       0.0036936738 -0.09869482 -0.1517454 0.07361039
0003f0 8a 99 9e 3c c6 01 ab bd f5 46 fd bc 85 e0 bf bc
       0.019360323 -0.08349948 -0.030917624 -0.023422489

fc1.bias f4 [64]
000000 ef 62 0a 3d 4e ab 0b 3e de 00 12 3e 8b 5e d4 bc
       0.033785757 0.13639566 0.14258143 -0.025923988
000010 79 94 0d 3b 7d 61 cd bc a3 a9 80 bd 51 cb ae bc
       0.002160339 -0.0250709 -0.06282356 -0.021337183
000020 2a 98 20 3d 57 8f d3 bc 43 b4 e8 3d 53 83 fb 3d
       0.039207615 -0.025825186 0.11362507 0.122809075
000030 4d 49 0f bd ee 60 73 3d 4d fd 51 bc 94 f0 14 bd
       -0.034982014 0.05941861 -0.012816739 -0.036362246
000040 47 ba 06 3e 79 8b 48 bd f2 00 03 3e 58 91 8b 3d
       0.13156997 -0.048961136 0.1279333 0.068148315
000050 b3 df 88 bc b4 a6 86 3c fe 26 3a bd b2 e8 82 3d
       -0.01670823 0.016436912 -0.045447342 0.06392039
000060 59 08 1f bd e3 06 27 bd a9 c4 2b bd 78 fa 0e 3d
       -0.03882632 -0.040778052 -0.041935597 0.034906834
000070 af 0f 61 bc 91 2e 36 3c 46 0d 85 bc 29 9e 77 bd
       -0.013736649 0.011119501 -0.01624168 -0.060453568
000080 67 b2 ef bb 5d 27 08 3e e3 f5 88 bc 32 ea 41 bd
       -0.0073149684 0.13296266 -0.01671881 -0.047342487
000090 8f bc 06 37 a7 0a 71 bd 6b 75 fc 3d e9 ec 87 bc
       8.030925e-06 -0.05884805 0.12327083 -0.01659246
0000a0 68 8c bd 3d 9e 4b 8c bd 67 fe bc 3a d0 78 5c bd
       0.09255296 -0.0685036 0.001441908 -0.053826153
0000b0 b3 f8 2e bd 8c 84 37 bc 38 60 9d 3c 16 c9 3e bc
       -0.042717647 -0.011201035 0.01921092 -0.011644622
0000c0 cc df 05 3e 14 7b 61 bd a4 86 b5 bc dc cc b0 3b
       0.13073653 -0.055049017 -0.022158928 0.005395515
0000d0 94 89 41 bd cc 80 10 bd 05 d4 12 bd 1c fe f4 3d
       -0.047250345 -0.03527908 -0.03584673 0.1196253
0000e0 25 a3 4a bd b0 60 af 3b ef 9d 41 bc 81 b8 ea 3d
       -0.049471993 0.005352102 -0.011817439 0.114609726
0000f0 7b 96 b3 3c ab 16 e4 3c 33 68 2b bd cc 73 09 3d
       0.02192234 0.02784284 -0.04184742 0.033557698

fc2.weight f4 [10, 64]
000000 6b b5 20 be 5b c8 4e be 5e f5 03 be 00 ca ad 3c
       -0.15694205 -0.20193617 -0.12886569 0.021214485
000010 67 0c 8e bd 37 a9 b5 bd 9d 88 b3 3d 66 3f 6d bd
       -0.06935959 -0.08870166 0.08766291 -0.05792179
000020 43 95 4a 3e 74 25 e7 bc 0c 00 0a 3e eb 3a af 3d
       0.19783501 -0.028216101 0.1347658 0.085561596
000030 a3 a0 c3 3d bc a0 40 bd a8 32 db bc 26 f0 52 bd
       0.095521234 -0.04702829 -0.026757553 -0.051498555
000040 29 c6 2c be 38 da 20 3d 1d ad 15 3e 1b 0f b5 3d
       -0.16872467 0.03927061 0.14616819 0.08840772
000050 23 12 65 3c f5 38 c3 3d 73 17 a6 3d 04 6f 52 be
       0.013981375 0.09532348 0.08109941 -0.20550162
000060 86 f2 99 3d ca e3 82 3d db da 72 3d 8a 31 9a be
       0.07516961 0.063911036 0.059290748 -0.3011592
000070 37 7a 84 bd 4b b1 d2 3d d1 95 d8 3d 5e be 8e 3c
       -0.06468623 0.10287722 0.1057545 0.017424759
000080 55 2e 25 bd a7 08 d4 3d 38 fc e0 bd 94 fe 95 bd
       -0.04032739 0.10353213 -0.10985607 -0.073239475
000090 fa 85 5d bd bf 57 2e 3d be 7d 25 3c 55 fa 16 3e
       -0.054082848 0.04256415 0.01010078 0.14743932
0000a0 81 ed 06 3e ef 33 a0 3d e4 93 32 be 5e 0b df 3d
       0.13176538 0.078224055 -0.17439228 0.1089084
0000b0 a9 63 36 be d8 eb 9d bd 38 40 ae bd a0 dc d3 3d
       -0.17811455 -0.07710999 -0.085083425 0.10344815
0000c0 fe 4b 17 bd 1a 92 f0 bc b4 6c cc bd d3 d3 c3 3d
       -0.036937706 -0.029366542 -0.09981671 0.09561887
0000d0 28 65 54 3d f5 0e 2c bc d0 e5 6e bd 11 1c cc 3d
       0.051854283 -0.010501613 -0.058324635 0.09966291
0000e0 6b 37 06 3d 16 69 81 bd 2f 30 e6 bd 05 4c eb bc
       0.032767694 -0.06318872 -0.11239659 -0.028722772
0000f0 40 5f 48 bd 8d 7e 50 3d e5 54 98 bd 0f e9 4f bd
       -0.048918962 0.05090194 -0.07438067 -0.05075937
000100 34 48 f2 3d a3 c6 99 be b9 62 5d be 1d 53 8b bd
       0.11830178 -0.3003436 -0.21619691 -0.06802962
000110 ce 9f 89 bd f1 82 85 bd e8 f0 30 3e 6e 05 d3 3d
       -0.067199335 -0.06519116 0.17279398 0.1030377
000120 93 eb 5f be 5c a4 a5 bd 72 d8 e8 bd 17 1a 2e bd
       -0.21867208 -0.0808799 -0.11369409 -0.04250535
000130 f2 4f dd bd d7 c2 a7 be c5 8d a9 3c 32 a3 d9 3d
       -0.10806264 -0.32765839 0.020697484 0.1062683
000140 bc 3d 01 3e 34 87 55 be 24 b2 36 bd 52 49 74 be
       0.12621206 -0.20852357 -0.044603482 -0.23856094
000150 2c 97 69 3d e9 b6 b4 bd d2 0e 8c be 4e fe 81 bc
       0.057028934 -0.0882395 -0.27355057 -0.015868332
000160 6e d8 2d 3c e4 cc 52 bd de 2b 79 3d b5 bd b3 3d
       0.010610683 -0.05146493 0.06083285 0.08776418
000170 e2 04 18 3e 36 01 84 3d 11 c9 cf 3d 80 9c 96 3d
       0.14845613 0.064455435 0.10145772 0.07354069
000180 54 b6 38 3d c0 45 8d bd 61 ce c6 3d 5e 12 aa 3c
       0.045095757 -0.068980694 0.097073324 0.020760711
000190 2b 10 a1 bc c7 d0 fc bb 0c a7 40 3d 82 9b 35 3e
       -0.01966103 -0.007715318 0.04703431 0.17735103
0001a0 cd 3b 01 be c9 d2 81 3d 07 82 c8 3d 06 2e a1 3c
       -0.12620468 0.06339032 0.09790426 0.019675266
0001b0 20 55 4e 3c 14 d1 25 bd 37 ef db 3d db f9 88 3d
       0.012593538 -0.040482596 0.10738986 0.06688281
0001c0 61 a0 62 bd c1 34 95 bd 3c 9c 30 bd bf 4f 8b 3c
       -0.05532873 -0.07285453 -0.043117747 0.0170058
0001d0 19 a9 2f bd 2f dc c1 3d 58 78 80 bd f9 90 94 be
       -0.042885873 0.09465825 -0.06272954 -0.29016855
0001e0 d9 b8 76 3e 56 ee d0 3c 3a 3d d4 3c 53 59 8f be
       0.24093951 0.025504272 0.025908101 -0.27997836
0001f0 78 9c e0 3d 4d 51 6e 3a 2c b9 3d bd 9c f2 fd bd
       0.10967344 0.0009091094 -0.04631917 -0.1239979
000200 3e 13 62 bc ec d5 39 bd d6 2c 01 3c cc 2d 03 bc
       -0.013798533 -0.045370027 0.007884225 -0.008006524
000210 42 9c 9a be 49 5c dd 3d d6 67 cc bd 2a 89 ef 3d
       -0.3019734 0.108086176 -0.09980743 0.11696084
000220 53 a6 6f 3e 2e c1 8d bd 1c 70 7c be bd 52 48 3c
       0.23403291 -0.06921612 -0.24652141 0.012226758
000230 c0 60 c9 bd 58 26 42 be 01 47 30 bd 4a 89 a3 3e
       -0.09832907 -0.1895994 -0.043036465 0.3194068
000240 26 b4 f5 3d 5d c6 14 3e 11 84 03 3e e4 f6 36 bd
       0.11997251 0.14528795 0.12843348 -0.044669047
000250 bb 95 53 bc eb 40 5e 3e c3 d6 16 3e b7 87 1c 3c
       -0.0129141165 0.21704452 0.14730363 0.009553841
000260 33 c8 92 bd be fc 1b 3d c8 14 d6 3d 36 ef a4 3d
       -0.07167091 0.03808283 0.104531825 0.08053438
000270 08 f3 6a be 22 45 ac bd 32 30 a8 3d 7e 22 cd 3d
       -0.22944272 -0.084116235 0.082123175 0.100163445
000280 57 4d cc bc 5d f6 12 be d1 ac 27 3d e3 81 0c 3d
       -0.024939222 -0.14351793 0.040936295 0.034303557
000290 f6 7e d5 3d 15 4e cf bd 5a e4 3f be b8 84 b1 bd
       0.104246065 -0.10122315 -0.18739453 -0.08667892
0002a0 f2 94 da 3c 49 f3 74 3d 7c 5d 39 bd 4c be 04 bb
       0.02668235 0.059802327 -0.04525517 -0.0020255027
0002b0 33 71 fc 3d 7c 56 2a 3d 5a bb 33 bd f4 a1 6f be
       0.123262785 0.041586384 -0.043879844 -0.23401624
0002c0 6d f7 16 be 97 bb 11 bd 91 cc 34 bd d5 f9 35 bd
       -0.14742823 -0.03557929 -0.044140402 -0.04442771
0002d0 5c 3e d6 bd 00 e2 0b 3c 93 c9 66 3c b9 4a 05 3e
       -0.10461113 0.008537769 0.014086145 0.13016786
0002e0 e0 70 c3 bd bb 45 9b bc fc 5c 86 3d 5e 1e 0b be
       -0.095430136 -0.018954149 0.06560704 -0.13585803
0002f0 fd 25 50 3e 92 05 89 bc 44 7a 8d bd 5f 38 0e 3d
       0.20326991 -0.016726289 -0.06908086 0.03472173
000300 c6 8a 23 be e5 fd 7d 3c d0 e8 4f bd 79 b5 68 3d
       -0.15970907 0.015502428 -0.050759137 0.05681369
000310 59 c0 92 bd cb cf f0 bc af 6d fa bd 0e ad 8e 3d
       -0.07165594 -0.029395958 -0.12227952 0.06966601
000320 41 4b 1e be e8 dd 05 be ab e2 23 3e 6b 38 08 3e
       -0.15458395 -0.13072932 0.16004436 0.13302772
000330 ae 7e f0 3d b2 4e 5a bd 67 5e b6 bd d6 64 c9 bd
       0.11742912 -0.053297706 -0.089047246 -0.09833686
000340 50 2b f3 3d ee 94 19 3e 79 e0 59 3d 1d ad 04 3e
       0.118734956 0.14998218 0.05319259 0.12956662
000350 1a a6 be 3c cf e8 20 bd 4d 7a a8 bd 44 7f b4 bd
       0.023272563 -0.039284524 -0.08226452 -0.088133365
000360 a7 11 f0 3c 58 09 82 3d 4f 50 70 3d 5d fe c9 3d
       0.029305292 0.063494384 0.05867034 0.09862969
000370 60 04 05 3e b6 82 f9 bd 02 5b 10 3d ae 26 45 bd
       0.1298995 -0.12183134 0.03524304 -0.04813259
000380 bd b7 97 3d fd fa d9 bd 2c af 86 3b 96 fa dd bd
       0.07408092 -0.10643575 0.0041102376 -0.10838811
000390 e2 3a 8f 3c 3b 00 74 bd 1b c1 33 3e 4f 78 51 be
       0.017484132 -0.059570532 0.17554133 -0.2045605
0003a0 c3 19 02 be be d2 34 bd e3 b3 7a bd 46 bf 9b bc
       -0.1270514 -0.044146292 -0.06120671 -0.019012105
0003b0 5d f1 e2 bd 61 4e 89 bc 9b ae 8e 3d 5b 1b 3e 3d
       -0.11081193 -0.016761007 0.06966897 0.046412807
0003c0 31 b5 2f 3d f7 15 d7 bd 1f aa f7 3b d4 16 ec 3c
       0.042897407 -0.10502236 0.007558122 0.028819479
0003d0 5b 4e 46 3d c9 82 8b 3c 24 77 28 bc 28 57 de bd
       0.04841457 0.017030137 -0.010282312 -0.108564675
0003e0 a2 a1 f4 bd 3e 2f ef 3d 26 56 73 bb aa d2 a2 bd
       -0.119448915 0.116789326 -0.0037130206 -0.07950337
0003f0 73 8a 1f 3e d6 47 2d be 32 43 a8 3d 53 b3 60 bd
       0.15580158 -0.16921934 0.082159415 -0.054858517

fc2.bias f4 [10]
000000 ec 52 32 3d 13 e4 1b be eb 26 af 3c b8 1e 20 3e
       0.04353611 -0.15223722 0.021380862 0.15636718
000010 71 ef bc 3d 1e 4a d6 3d 42 63 9b 3d 6c f3 84 3d
       0.09225357 0.104633555 0.07587291 0.064917415
000020 66 02 d8 3d e6 f0 8f 3b
       0.105473325 0.004392731
